iti-271013_equipo_02/iti-271013_equipo_02/dataset_generator/model.tflite (tflite, 312916 bytes, 8 tensors)

model/re_lu/Relu;model/batch_normalization/batchnorm/add_1;model/conv1d/Conv1D/Squeeze;model/batch_normalization/batchnorm/mul_1;model/conv1d/BiasAdd;model/conv1d/BiasAdd/ReadVariableOp;model/batch_normalization/batchnorm/mul;model/batch_normalization/batchnorm/sub;model/conv1d/Conv1D;model/conv1d_1/Conv1D f4 [128]
00000000: d841 7dbf b641 873e affe 823e 211b a6be
00000010: 12d3 6dbf f327 013e 4b53 5bbe 5ba2 c3be
00000020: 74c4 53bf dc92 92bd 9b0c 52bf 4ae0 1ebf
00000030: a386 f53d 4cdb aebe d83d a93d a411 6c3e
00000040: 3bfe eb3d 5d79 a03d 1e5e 04be 71b9 2abe
00000050: 1b96 12be 75cc b7be 827e 5ebf 77e3 52be
00000060: b077 94be 2b02 26be 4b73 113e d48a 02be
00000070: 7349 cabe 42d8 36bd 55c2 58bf 895e 49bf
00000080: e6d6 d2bd c6d6 1cbf 5016 913d 21f6 123e
00000090: 93d2 0bbf 3b26 893d 3cf3 9bbc 67e0 3f3e
000000a0: e8b4 71be 7a0f 82be 6ac6 e5bd e8a4 603e
000000b0: deaa 0e3e 1d15 56be 3457 c13e f84e b83d
000000c0: 5177 e23d 3062 9ebd 45f3 aebc 479d c03d
000000d0: c46b 1fbf 0d21 39bf af9a 41bd 571e fdbe
000000e0: 73ba 8bbd 882c 40bd 2251 5a3e 8050 b8be
000000f0: a570 b0bd 75e2 24bf 36eb e53d a7c7 5ebd
00000100: e1fd 9e3e a87e c4be 7aa0 e2bd a1b0 ed3c
00000110: 2732 2ebd 69a6 d0be e237 34bf 0513 963e
00000120: c3b5 6ebf c2f5 9d3e d6fc 843e 0d16 08be
00000130: 0c56 80be 0be0 5fbf 9ce9 653e 8ac6 70bf
00000140: 9ccc 053e dd56 233e f580 2e3e f355 5dbe
00000150: 6fc3 33bf e529 13bf 4d3b 1fbe bf14 083e
00000160: 8862 3ebf b053 903e 6197 5bbd 36e0 703e
00000170: ea1d 20bf 22af 03bf 8c56 f8bc a782 c03e
00000180: 2143 0dbf c27d 0cbe b3de 92be 051a 11be
00000190: e2ca 1ebf 3667 543e 3141 5a3e 3997 8f3d
000001a0: 9dbb 4b3e 849f e83b 5c8a 4abf 8b61 22bf
000001b0: d52b 923e e14c 4c3e 49df 423e 3567 ab3e
000001c0: bd42 44bf 6732 14be 2723 803d 3326 1ebf
000001d0: 82df d8bd 0125 ee3c 4c54 2d3e dc64 66bf
000001e0: 1f94 71bf 56b5 a6be 9e18 113e 658f 82be
000001f0: c4f3 d4bd 4788 4a3e b142 9fbc 6b36 72be
-0.98928595 0.2641732 0.25584933 -0.32442573 -0.9290019 0.12612896 -0.21418492 -0.38209805
-0.8272164 -0.071569175 -0.82050484 -0.6206099 0.119885705 -0.34151685 0.08263749 0.23053604
0.115231 0.07835648 -0.12926528 -0.16672303 -0.14315073 -0.35898176 -0.86911786 -0.20594583
-0.28997564 -0.16211765 0.14204137 -0.12748271 -0.39509162 -0.044639833 -0.8467153 -0.78659874
-0.10294895 -0.6126522 0.07084334 0.14351703 -0.54618186 0.06696745 -0.019036882 0.18737946
-0.23604167 -0.25402433 -0.11219485 0.21937907 0.13932368 -0.20906492 0.37761843 0.08999437
0.11057914 -0.077335715 -0.021356234 0.09404998 -0.6227381 -0.72316056 -0.04726666 -0.4943721
-0.06822672 -0.04691747 0.21320012 -0.35998917 -0.08615235 -0.64408046 0.112265036 -0.054389622
0.3105307 -0.3837788 -0.11065765 0.029014887 -0.042528298 -0.4075196 -0.7039777 0.29311386
-0.93246096 0.3085156 0.2597415 -0.13289662 -0.2506565 -0.8745124 0.22452396 -0.94052947
0.13066334 0.15951104 0.1704138 -0.21614818 -0.70220083 -0.574858 -0.15549965 0.13289164
-0.74369097 0.28188848 -0.053611163 0.2352303 -0.62545645 -0.51439106 -0.030314706 0.3759968
-0.55180556 -0.13719848 -0.2868553 -0.14170082 -0.62028325 0.20742497 0.21313931 0.07011265
0.19895788 0.007099094 -0.7911737 -0.6343009 0.28549066 0.19951202 0.19030489 0.33477178
-0.76664335 -0.14472352 0.06256705 -0.6177704 -0.10589506 0.02907038 0.16926688 -0.8999765
-0.9436664 -0.32560223 0.14169547 -0.25500026 -0.10398057 0.19778548 -0.01944098 -0.23653571

model/re_lu_1/Relu;model/batch_normalization_1/batchnorm/add_1;model/conv1d_1/Conv1D/Squeeze;model/batch_normalization_1/batchnorm/mul_1;model/conv1d_1/BiasAdd;model/conv1d_1/BiasAdd/ReadVariableOp;model/batch_normalization_1/batchnorm/mul;model/batch_normalization_1/batchnorm/sub;model/conv1d_1/Conv1D f4 [128]
00000000: 1c18 973e 8b84 423d a656 833e 4b7d 363d
00000010: 2e5a ba3e 5cbb 7a3e cd9f e93e a3b3 90be
00000020: 3073 2c3f 767a a63d 4bd5 823e d16b c73e
00000030: 76a2 043f 81ad 363e 89b1 09bf f0a8 243e
00000040: 9f24 823e a215 5c3f ccb7 943e 18d9 593e
00000050: db9c 233e ba24 eb3e aa72 ad3e b857 333e
00000060: 53b8 853e d3a9 8d3e 6213 533e 129b f33e
00000070: ad0c c13e 56ce a83e 136e 2b3f 51ff 183f
00000080: 9114 563e 32db d43e d666 c23e 86bd bd3e
00000090: 8883 b03e 5783 42bf cbfc 4c3e b2bb 7e3e
000000a0: e8bd 9d3e 5e7b 0a3f a797 ad3e 6fd5 3ebf
000000b0: 45a2 f53d 9847 923e afc6 a83e 187c 9c3e
000000c0: facc 88be 53dc d03e 191e dd3e 54e1 b53e
000000d0: ea25 a83e 76dc a93e 6d3a 743e d5fc 9b3d
000000e0: 0391 8e3e 284e e23e 73e2 e33d a016 a03e
000000f0: 44b3 8e3e 80a4 d03e cfef a13e 7a6e c33e
00000100: 2a47 b93e 7248 073f ff3a c63e 27a3 173f
00000110: ee28 8a3e 8006 123f 0300 223f 7d88 a93d
00000120: b03d 143c 6b2d 043d 7df4 733e c866 fcbe
00000130: 8139 5e3f ce26 803e ea34 e13e 2cfb db3e
00000140: 403e 7bbd 6559 f43e 5c61 b63e 4981 3d3e
00000150: 65ae df3e 7ffd ad3e 4080 de3e be45 ec3d
00000160: 039b cd3d 5192 863e 2c02 1d3f 3acd d33d
00000170: 1e89 c63e 4080 b63e b3e2 bbbe 8335 cb3e
00000180: ffad 1d3e 6687 e73e 0ea9 41bf 5f2e 053f
00000190: 5786 ec3e 19ea d93e 56b5 e73e 4509 763e
000001a0: 9ff3 cd3e d145 1b3f e3b4 e33e 3b9c ed3c
000001b0: ffcb ed3e ebf1 34be 2cbe 8f3e 9b8b bf3e
000001c0: bd41 6c3e 37cc 9c3e 3db6 a5be f71d 613e
000001d0: a0f9 bb3d 0c13 b43e a63a b8be 7cc5 d13e
000001e0: 5ad1 0c3f b7f9 9f3e a244 d93d 3c77 953e
000001f0: 29e4 f23e 3be1 0b3e 7fed 923d 9a65 ac3e
0.29510581 0.047489684 0.25652045 0.044553082 0.36396927 0.24485534 0.4562973 -0.28262052
0.6736326 0.08128826 0.25553355 0.38949445 0.51810396 0.17839624 -0.5378652 0.1608007
0.25418565 0.8597051 0.29046476 0.21274221 0.15977804 0.45926458 0.33876544 0.17513931
0.2611719 0.27668628 0.20612863 0.47579247 0.37704983 0.32969922 0.66964835 0.5976458
0.20906283 0.41573483 0.37969083 0.37058657 0.3447535 -0.7598166 0.20018308 0.24876288
0.3080895 0.54094493 0.33904764 -0.74544424 0.11993841 0.28570247 0.32964084 0.30563426
-0.26718885 0.40793094 0.43187025 0.35523474 0.32841426 0.3317601 0.23850413 0.07616583
0.2784501 0.44200253 0.11127176 0.31267262 0.27871144 0.40750504 0.31628272 0.38170224
0.36187106 0.5284492 0.38716885 0.59233326 0.26984352 0.5704117 0.6328127 0.08277986
0.009047911 0.032269876 0.23823734 -0.49297166 0.86806494 0.25029606 0.43985683 0.42965066
-0.061338663 0.47724453 0.35621154 0.1850635 0.4368774 0.33982465 0.43457222 0.1153674
0.10039332 0.26283506 0.6133144 0.10341878 0.38776487 0.35644722 -0.36696395 0.39689264
0.15398405 0.45220488 -0.7564858 0.5202388 0.46196243 0.42561415 0.45255536 0.24026974
0.4022493 0.60653406 0.44473943 0.02900516 0.464447 -0.1767041 0.28074777 0.37411198
0.23071952 0.30624554 -0.323656 0.21984087 0.091784716 0.35170782 -0.35982245 0.4097098
0.55006945 0.31245205 0.10608794 0.2919253 0.47439697 0.13660137 0.07174205 0.33671266

model/re_lu_2/Relu;model/batch_normalization_2/batchnorm/add_1;model/conv1d_2/Conv1D/Squeeze;model/batch_normalization_2/batchnorm/mul_1;model/conv1d_2/BiasAdd;model/conv1d_2/BiasAdd/ReadVariableOp;model/batch_normalization_2/batchnorm/mul;model/batch_normalization_2/batchnorm/sub;model/conv1d_2/Conv1D f4 [64]
00000000: 641e 483e e327 d63e 3ea5 3140 ae15 dd3e
00000010: 1d58 8140 bb4c 333f 3372 c1be 7f9f a5bf
00000020: 1ec2 4140 eb68 8940 b289 8740 e619 60be
00000030: a4bd 1c40 c6b2 243f f46a ac3f c25c 8c3f
00000040: 6059 4e40 6a81 833f a4a3 1340 873a 9240
00000050: 3a54 1740 2f96 f93e 81d7 d33f dc84 57bf
00000060: 69ef cd3f 1121 4e40 daf6 8540 c15b c1bd
00000070: a119 5640 3420 2540 76de 5a40 9d77 9840
00000080: 9ac8 d13f ffc8 623f a28a 2340 be68 9e3f
00000090: 8dd3 9f3f aa4b 8fbe 02a2 6d40 1bed 2e40
000000a0: afe3 5b40 8775 503f 20a3 3440 adbb 273f
000000b0: f70f 4140 45ed 933f d201 af40 2819 9340
000000c0: 6ef5 5c40 6cfd 5140 6d99 3440 c174 4140
000000d0: 879d b83e 8d0c 0f40 9628 f13f 3208 8340
000000e0: 51b7 4640 15a9 9240 0f7b 4d3e 67e6 6940
000000f0: 47c4 153f 768f 2f3f e26e c840 7445 ca3e
0.19542843 0.41827306 2.7757106 0.43180603 4.042006 0.70038956 -0.3778244 -1.2939299
3.027473 4.2940574 4.2355585 -0.2188488 2.4490747 0.64335287 1.347014 1.0965807
3.224205 1.0273869 2.3068628 4.5696445 2.3645158 0.48747393 1.6550142 -0.841871
1.6088687 3.2207682 4.1863832 -0.09441329 3.3453143 2.5800905 3.419828 4.764601
1.6389344 0.88587946 2.5553365 1.2375715 1.2486435 -0.27987415 3.7130132 2.7332218
3.4357717 0.8142933 2.8224564 0.65520746 3.0165994 1.1556784 5.468972 4.596821
3.4524798 3.2810926 2.8218644 3.022751 0.36057684 2.235141 1.8840511 4.0947504
3.1049387 4.58314 0.20066474 3.6546876 0.5850262 0.6857828 6.2635355 0.39506114

model/batch_normalization/batchnorm/mul_1;model/conv1d/Conv1D/Squeeze;model/conv1d/BiasAdd;model/conv1d/BiasAdd/ReadVariableOp;model/batch_normalization/batchnorm/mul;model/conv1d/Conv1D;model/conv1d_1/Conv1D f4 [128, 1, 3, 1]
00000000: 26c0 cfbb 8493 173c 9f11 8dbc afa4 84bc
00000010: ee07 8abc 64c8 233d 9ce0 e0bc aaaf 813b
00000020: 4ea3 083d 2da7 0dbd 6d55 37bc 30a6 123d
00000030: 3d07 1f3c e832 ddbb 4e3b 81bc ef91 ea3c
00000040: 07e1 2cbd b3a2 073d 821b 293a af95 15bb
00000050: 0e06 833c 8b65 00bd 5469 90ba 134f b73c
00000060: 0348 5a3c 8055 ad3b 1223 05bd 979b 103c
00000070: 03d8 883c dd12 88bc 17cc 4dbb 4dc9 a2bb
00000080: d154 40bc 1776 d73c 6169 0bbd 75aa c13a
00000090: 16df 95bc 7565 c23b b4fd c43c 93df 13bd
000000a0: 8677 6c3a 8b68 d23c f4bc 94bc 83a1 a93c
000000b0: 2986 ac3b 2143 4a3d 40ad d2bc f379 29bc
000000c0: af31 b7bc d80f 9a3b bc3b d43c 8f4e e93c
000000d0: d91f 08bc 2a21 cebb 2fed 30bd cb7c 1e3d
000000e0: d2aa bc38 7811 e7bc b4f3 fabb 1b23 193d
000000f0: 36ff 2abd aed1 613d d704 8fbc 1960 6a3d
00000100: ce97 0ebd 3954 48bc 57b4 9fbb ca52 acbc
00000110: 50b1 123c af64 493d ef44 55bc c390 d7bc
00000120: 1bd1 323c 3bce 21bc 07df 363c 0b27 cdbc
00000130: 62f8 e9bb 9aeb 0d3d 3fd6 053c 79fa d4bc
00000140: 772d d13c 80d9 32bd 4b9b 0d3d 8d19 f2b9
00000150: f17d 6ebc 42d7 ffbc 58f1 133d 8d10 243d
00000160: b0f3 d6b9 9347 22bd be5a b2bc c159 433c
00000170: 8081 debb 9db1 7dbc 0bdd df3b f820 f7bb
00000180: 52d8 1abd 287d 1e3d 8d13 d93a 228d 98bb
00000190: e467 cc3c 0837 eabc d1f6 7dbc 90a6 b73b
000001a0: 717d 9c3c 2f70 e33b 5730 033d 073a debc
000001b0: f73e 9e3c dbdc d1bc 8bec a3b9 7e44 69bc
000001c0: 6eba 843c b25d 663b 4593 783d c272 03bd
000001d0: 2af7 e6bc 6502 383d 7ae7 5abd 3e78 bf3c
000001e0: a3b2 8dbc 3251 d5bc 3d5d 183d 0e47 f1bc
000001f0: 8ab7 bdbb 05c5 ed3c 75bd 993c 8e1c 05bb
00000200: 1d83 9ab9 50df 4f3d e908 74bd cb48 ce3c
00000210: f952 a3bc b41a c93a 2fc2 d63c 2c66 b23c
00000220: 5f23 8bbb 3886 063a 7b4d e03c 310d 823c
00000230: ac37 ccbc 25fc 2dbc 6795 743c c9a7 0e3c
00000240: f626 87bc 311b 38ba 22b1 cc3c f1e3 b4bc
00000250: e385 1bbc 7275 fb3c fcee 94bc a99f 763d
00000260: ac3d 45bd b3b0 fabc 376f e13c fed0 773c
00000270: 1309 d0bc 974d 47bc ab60 b43c 36ed 9b3c
00000280: 9c8c eebc e44b 4c3a a2ad 8f3c 2e61 d83c
00000290: 5d1d 4fbd ab60 eabc 03fa 86bb 6243 9c3c
000002a0: 2b1c 473d 490a 59bd a6bd c93b 425a 953c
000002b0: ef48 cc3c 4c43 48bd 6cab 303d 4c7e 22bc
000002c0: 6bce b0bc 9d67 2ebd d33d d0b8 2312 013d
000002d0: 9041 2abd 7d07 383d 5fc3 d3bb c67d 953b
000002e0: cdd7 c73c fade 29bd f9c2 b2bc 34fe ba3b
000002f0: 6c56 ee3c 2006 26bd 21fb 9f3d 8697 28bd
00000300: 7cc6 373d f22f a53a 985b 02bd 8423 ea3b
00000310: 8e1f 29bc 31d5 903c 82bc 083d c231 5cbd
00000320: 0e66 cf3c e478 863b a529 193c cb87 af3b
00000330: b8b0 4dba b36f 3ebd 3573 343d a7a4 b53c
00000340: 927f 873c 634d 43bd 04e9 a33b dc09 353c
00000350: b6fd eebc da92 213d d38c 53bc 8587 cbbb
00000360: 92d8 88bc cff0 9fbb 81c1 763a 9029 163d
00000370: e08c bcbb 5efe 7bbc af47 99bc 2e54 873d
00000380: 3c79 17bd c480 aebc df3c 003d 10fe 113b
00000390: ae6a 7bbc 9821 373d 7ab3 12bd 9e81 67bc
000003a0: 0a59 afbb 280a 043a 49c2 f63c ddfb 133d
000003b0: c7c8 40bd 5cca c03b 6eec adbc 2a71 143b
000003c0: 2ccf 91bc eb06 2d3d bb27 8dbc 1d0a 253d
000003d0: e64d 2d3a 8542 e4bc 4a85 703c bc82 4d3c
000003e0: 699a 7cbc 7e79 123d 2c8d 96bb 7e44 0abd
000003f0: 4a47 8bbc a539 ab3c ab04 85bc 4d74 06bd
-0.0063400446 0.009251479 -0.017220316 -0.016191809 -0.016849484 0.03998603 -0.027450852 0.0039577084
0.033358864 -0.03458326 -0.011189801 0.03580302 0.009706316 -0.0067504533 -0.015775349 0.02863404
-0.04220679 0.033114146 0.00064509374 -0.0022824814 0.015994098 -0.03134684 -0.0011017718 0.022376573
0.013322833 0.0052897334 -0.03250415 0.008826158 0.016704565 -0.016610557 -0.0031402165 -0.0049678446
-0.011738972 0.026301427 -0.034036044 0.0014775532 -0.018294852 0.005932505 0.024046756 -0.03610189
0.0009020496 0.025684616 -0.018156506 0.020706898 0.0052650166 0.049380425 -0.025717378 -0.010344016
-0.022362558 0.0047015958 0.02590739 0.028479842 -0.008308374 -0.0062905746 -0.043194946 0.03869323
8.996356e-05 -0.028206572 -0.007658446 0.037386995 -0.041747294 0.055131607 -0.017458363 0.057220552
-0.03481274 -0.0122271115 -0.004873793 -0.02103557 0.008953407 0.049168285 -0.013016923 -0.026314145
0.010914112 -0.009875829 0.011161572 -0.025043031 -0.0071402052 0.034648515 0.008168756 -0.02599834
0.025534375 -0.043664455 0.034571927 -0.00046176874 -0.014556394 -0.031230573 0.036118835 0.040054847
-0.00040998822 -0.03961904 -0.021771785 0.0119232545 -0.00679034 -0.015484241 0.0068317703 -0.007541772
-0.037803955 0.038693577 0.0016561613 -0.004655496 0.024951883 -0.028590694 -0.01550074 0.0056045726
0.019102784 0.0069408636 0.032028522 -0.027127279 0.019317133 -0.025618007 -0.0003126602 -0.014237521
0.016202178 0.0035151062 0.060687322 -0.032091863 -0.028194029 0.04492416 -0.05344341 0.023372766
-0.017297095 -0.026039694 0.037198294 -0.029452827 -0.005789702 0.02902461 0.018767098 -0.002031121
-0.00029470856 0.050750077 -0.05957881 0.025181195 -0.019937025 0.0015343041 0.02621564 0.021777235
-0.00424616 0.00051316945 0.027380696 0.01587543 -0.02492889 -0.010619198 0.014928198 0.008706995
-0.01649807 -0.0007023095 0.024986807 -0.022081347 -0.00949237 0.03069565 -0.018180363 0.060210858
-0.048154518 -0.030601835 0.027518852 0.015125511 -0.025394952 -0.012164495 0.022018751 0.01903401
-0.029119782 0.0007793291 0.01753885 0.026413526 -0.050565112 -0.028610548 -0.004119159 0.0190751
0.048610847 -0.052988324 0.006156641 0.018231515 0.024937121 -0.048892304 0.04313223 -0.009917807
-0.021582803 -0.042579282 -9.9297285e-05 0.031511437 -0.04156643 0.044929016 -0.006462499 0.0045621125
0.024394894 -0.041472413 -0.021821486 0.005706573 0.029093944 -0.040533185 0.07811571 -0.04116013
0.044867024 0.001260279 -0.03182563 0.007145347 -0.010322465 0.017679783 0.0333829 -0.05375839
0.025317218 0.0041037668 0.009348308 0.005356764 -0.00078464625 -0.046493243 0.044055182 0.022173239
0.016540322 -0.047681224 0.005002143 0.011049714 -0.029173713 0.03944669 -0.012911993 -0.0062112235
-0.016704831 -0.0048810015 0.00094129896 0.03666073 -0.0057540983 -0.01538047 -0.01871094 0.06607853
-0.036980852 -0.021301635 0.03130805 0.0022276677 -0.015345259 0.044709772 -0.035815693 -0.014130024
-0.0053511905 0.0005036914 0.03012194 0.036128867 -0.047066476 0.005883498 -0.021230903 0.002265046
-0.017798983 0.042242926 -0.017230859 0.040292848 0.0006611034 -0.02786375 0.014680216 0.012543377
-0.015417674 0.035760395 -0.0045944657 -0.033756725 -0.017001767 0.02090151 -0.016237577 -0.032825757

model/batch_normalization_1/batchnorm/mul_1;model/conv1d_1/Conv1D/Squeeze;model/conv1d_1/BiasAdd;model/conv1d_1/BiasAdd/ReadVariableOp;model/batch_normalization_1/batchnorm/mul;model/conv1d_1/Conv1D f4 [128, 1, 3, 128]
00000000: 8ef2 7cbb 92d5 ccbc b3d1 14bd 1aca bbbd
00000010: 99a6 48bd 238f c53b 4037 9bbb 4675 aabd
00000020: 8c4b 0bbd 997a 813c 42e9 70bc 89b1 96bb
00000030: a65d c4bc 933a bbbd 17b8 c2bb c763 32bc
00000040: 0af4 43bd 7fd4 483c e8ec 65bb 423b dcbc
00000050: 349c 993c f129 5cba 7fff 0cbd b5ce e7bc
00000060: 1122 373c b0be ffbc e866 113c 0ebc 6dbc
00000070: ff5e 313c 7b96 42bc 9da8 10bc 5cc9 083c
00000080: 96d3 553c 2942 5b3a 4e30 88bc 32f9 313c
00000090: b039 6dbc 7c2f ee3b 0020 d2bb 4536 ec3b
000000a0: 898e a03b d19f b7bd 6cd0 ae3c 378a 1bbb
000000b0: 3f1b 5fbd 403b b53c 105e 503c 0cb8 60bc
000000c0: 82f2 32bd 359a 9bbc d939 533b 0058 5bbc
000000d0: 2cbc 62bd 74ed 20bd 97f5 8fbb 9e11 b9bd
000000e0: b3c9 05bc 430e 333c 5a02 3cbd eb54 0ebe
000000f0: 7456 93ba 3520 f23b 8d94 05bd 93e4 653c
00000100: 4d18 05bd eb1a ba3a da02 b03c e797 ae3c
00000110: e3c4 493d 426e c5bc 22c0 17bb 9bfa 423c
00000120: 0512 ff3b 89f6 43bc a6f5 e23c c271 833c
00000130: e985 debb 95c3 b3bc 1aa6 c2bb a993 38bd
00000140: 5d5d dc3b e026 3abb 8b76 b23c 1f9e 40bc
00000150: 593e 16bc 13fa 53bc 747e da3b 1efd 80bd
00000160: 31db 5c3b 2dcc 2a3c d3bb a6bb 0f09 96bc
00000170: 6d19 63ba 87f4 54bb b2ef a3bc d43f 8aba
00000180: 0ba5 efbc 3900 fc3c e0ad dbbb af54 05bc
00000190: 6566 35ba 7fb3 23bc 7cff 18bc 8f30 81bc
000001a0: ee75 913c ca1a c53c d2fb 69bd dbd3 dfbc
000001b0: 85bb 61bc 360f bc3b 701d c13c 77ac 803b
000001c0: b147 43bc 64e9 0bbd 5257 e83c aa7c 11bd
000001d0: 7a8b a9bb 8564 e63c 8b28 91bd d311 c6bc
000001e0: 1591 01bc 82d7 f7bd 276c 78bd abee 833a
000001f0: 077d 8e3c 4923 d0ba 836a 0b3d b0d7 46bd
00000200: 7964 63bd 286f e1bc 0fe9 75bd d4c2 f43b
00000210: 45d4 3cbd 75d4 d63a 8def c5bd 9bf8 ea3b
00000220: 6675 10bd 47a1 873c 8687 39bd 6c2c ee39
00000230: f465 72bd 2421 a23c 77da 7e3c 687a 9b3c
00000240: 4bbc 46bd 819d 33bb 6dad 023d 30ea a43b
00000250: d56b acbb f0c1 343d 6469 d6bc 5a84 08bc
00000260: 922e 75bd 25cf 20bb cd4c 95bc d3ea 3e3d
00000270: bfff 133c b517 f63b 497b 48bd cca9 46bd
00000280: c17a 3e3c 5ca6 b6bc d0ff 44bd 72eb c0bb
00000290: 7fe6 aabc edcc 8b3c ea36 1f3c d836 3dbc
000002a0: 9495 703c 878b bc3c 1ae6 c6bc 500e bbbc
000002b0: 12e9 94bd 63b4 23bc 21fd b6ba 9252 94bc
000002c0: 8e72 9bbd d1a9 883c c8c8 563c a03d b1bb
000002d0: 4fff 503c aa61 7fbc 2321 3dbc b1ca 9e3c
000002e0: bf27 b33c e926 4c3b ee8a 1fbc beb9 8c3c
000002f0: ab8d 113d d067 09bd ee14 77bd f7bb 653c
00000300: 513e a2bb 7830 a9bd 68ac 2cbc baa3 703c
00000310: efb0 a43c 4386 b1bc 62a9 26bd 171b f13b
00000320: 947f 11bd 9510 853c 30f7 27bb 0bac 933c
00000330: 464a 9fba 2c05 b2bc c317 aa3c 885b 20bd
00000340: ceb4 16bc 4b44 a53c 5424 c2ba c6e5 06bd
00000350: f32c 07bd f2a1 99bc 3465 7d3c 30ad 2dbd
00000360: 07ee 20bd fb8d 30bc 6a98 0e3b 1326 fdbc
00000370: ab49 91bc 147b 57bc ce94 013c 6a5a 903c
00000380: a6fa f3bc eff8 713c 1357 4fbb c4f5 af3a
00000390: 5641 34bc fab7 bdbc 63c9 abbc 03a9 1a3b
000003a0: 7b27 0e3c 20ed 16bd ce4e 03bd ff27 e9bc
000003b0: 5aae d2bc 238a 81bb 3276 883c bb8b d4ba
000003c0: b328 19bd 5951 08bc f5bf 31bb 6163 b5bc
000003d0: 1e4f 82bd 4a10 883c 08f0 82bc b0ab a0bd
000003e0: 267b 8abd e21f 0d3b 11f8 77bd 4d39 03bc
000003f0: b464 4a3c de72 723c cd3e 8a3b b200 7d3c
-0.0038596722 -0.025004182 -0.036332797 -0.09169407 -0.048987005 0.006029026 -0.004736811 -0.083231494
-0.034007594 0.01580553 -0.0147040505 -0.0045988006 -0.023970436 -0.091420315 -0.0059423554 -0.010888047
-0.047840156 0.012257694 -0.0035083834 -0.026883725 0.018751241 -0.0008398584 -0.034423348 -0.028296808
0.011177556 -0.031218857 0.008874632 -0.014510168 0.0108258715 -0.011876698 -0.008829263 0.008348789
0.013050934 0.00083640456 -0.016624596 0.010862635 -0.014479086 0.007268844 -0.006412506 0.007208618
0.004899804 -0.089660294 0.021339618 -0.0023733506 -0.054469343 0.02212298 0.012717739 -0.013715755
-0.043688305 -0.01899443 0.0032230525 -0.01338768 -0.055355236 -0.039288953 -0.0043932903 -0.09036563
-0.008165765 0.010928693 -0.04590068 -0.13899581 -0.0011240975 0.0073890933 -0.032612372 0.014031547
-0.03249388 0.0014198696 0.021485735 0.021312667 0.04926003 -0.024100427 -0.0023155292 0.011900569
0.0077841305 -0.011960634 0.027705025 0.016045455 -0.0067908657 -0.021943847 -0.005940211 -0.045062695
0.006724997 -0.002840452 0.021785041 -0.011756449 -0.009170138 -0.01293804 0.0066679064 -0.06298278
0.0033699984 0.010424656 -0.0050883084 -0.018314866 -0.00086631515 -0.0032494382 -0.020011757 -0.0010547587
-0.029253503 0.030761825 -0.006704077 -0.008137866 -0.000691986 -0.009991526 -0.009338256 -0.015770225
0.017756429 0.024060626 -0.05712492 -0.0273227 -0.013777618 0.005739118 0.023573607 0.0039268094
-0.011918948 -0.034158126 0.02836195 -0.03551928 -0.0051740976 0.028124103 -0.07087811 -0.024178421
-0.007908125 -0.12101652 -0.060650017 0.0010065635 0.017393602 -0.0015879656 0.034037124 -0.04854554
-0.05551574 -0.027518824 -0.060036715 0.0074695144 -0.046100874 0.0016390221 -0.09664831 0.0071707494
-0.03526821 0.016556395 -0.04529526 0.00045427994 -0.05917926 0.019791193 0.015555016 0.018979266
-0.048519414 -0.0027407112 0.031903673 0.0050328 -0.005261878 0.044130266 -0.026173301 -0.008332336
-0.059858866 -0.002453753 -0.018225098 0.046610665 0.009033143 0.0075101503 -0.0489457 -0.048501775
0.0116259465 -0.022296123 -0.048095524 -0.0058874423 -0.020861862 0.01706549 0.009717682 -0.01154872
0.0146841 0.02301575 -0.024279643 -0.022833973 -0.07271017 -0.009991738 -0.0013960936 -0.018105779
-0.07590209 0.016682537 0.013109393 -0.0054089576 0.012756183 -0.01558725 -0.011543545 0.01938376
0.021869538 0.0031151122 -0.009737713 0.017178413 0.035535496 -0.03354627 -0.060322694 0.014021865
-0.0049512764 -0.08261198 -0.010539152 0.014687473 0.0201039 -0.021670466 -0.04068888 0.0073579657
-0.03552206 0.016243258 -0.0025629513 0.018026372 -0.0012152873 -0.021730982 0.020763284 -0.03914979
-0.009198381 0.020174166 -0.0014811852 -0.032933973 -0.03300185 -0.01875398 0.015466023 -0.042401493
-0.0392895 -0.010776038 0.0021758326 -0.030901944 -0.017735323 -0.013151903 0.007909013 0.017621238
-0.029782604 0.014768823 -0.0031637594 0.0013424684 -0.011001905 -0.023159016 -0.020970052 0.0023599274
0.008676405 -0.036847234 -0.032057576 -0.028461454 -0.025717903 -0.0039532348 0.016657922 -0.0016215959
-0.03739233 -0.008320176 -0.0027122472 -0.022142114 -0.06362747 0.01660933 -0.015983596 -0.07845247
-0.0676177 0.0021533896 -0.06053931 -0.008009267 0.012353111 0.014797894 0.004218912 0.01544206

model/batch_normalization_2/batchnorm/mul_1;model/conv1d_2/Conv1D/Squeeze;model/conv1d_2/BiasAdd;model/conv1d_2/BiasAdd/ReadVariableOp;model/batch_normalization_2/batchnorm/mul;model/conv1d_2/Conv1D f4 [64, 1, 3, 128]
00000000: 508a 3e3d 29d3 83be 4993 aabe 4c9c 253f
00000010: b3da f73e 84d2 5dbe 07a9 2e3e 66c3 073f
00000020: debb 00bf b707 d6be fd15 b83f 36bc 7dbe
00000030: 0cb1 9fbe bfbc b43d 197f 213f 6db4 343f
00000040: d6b0 75be 93a1 b03f cd6e a3bf 44e6 ccbe
00000050: 7836 263f 41ac 9f3f 9b91 cc3f f990 893e
00000060: da79 773f 375b 433e 0e10 1ebf e1c2 06bf
00000070: da7f 4d3f 750a 1abd 86da e53e 8bbc d53e
00000080: 47ab a6bc 0395 81be e3fa d33c 6779 533d
00000090: c4bd 983f 3523 a7be 9139 793f 043a 013e
000000a0: 0dfe 8a3f ba76 4c3e 6304 19bf 09c8 9d3d
000000b0: 2f8f a0be 26de 93be e76a 94be a149 9fbd
000000c0: 7e33 5bbd 7a84 16bd 9791 dd3e 5e7b c43e
000000d0: 6d29 6a3f c362 363f dd16 68bf 1da7 033f
000000e0: 2f83 0dbf a775 ad3f 16fb 13bf 9677 873e
000000f0: 7876 55bf 9d17 b93e 1b8a 4dbf 7ef9 683f
00000100: f4d1 56be f079 2b3f f61b 203e ef5b f0be
00000110: a637 bd3f 6b26 10bf d8e4 6f3f 8c6a c13d
00000120: 67d0 f2be 4f96 04bd 4262 1b3f d847 1e3e
00000130: 60bb af3e 5b2a 4d3f 23bf a53e 7890 0e3f
00000140: 53c0 9f3e 5248 4fbf 20c2 903f a4d9 3cbe
00000150: fe87 6f3e 7634 01bf 2d97 9a3e 2a00 b1be
00000160: 7d0f 1ebf 132c ab3d 2ee1 8a3f 9f73 933e
00000170: 9182 49bf af70 683f 530b 7cbd 6a0a 6d3d
00000180: f7c2 c4bf 33cc a53f 41ae 0ebe 7bab 863b
00000190: 7dd9 0c3f a39c c3bd 5970 63be 1a26 29bf
000001a0: 287c 0cbf e9e1 92bf 4ca2 da3e 2e9a 513e
000001b0: edcd 2e3f 605c 663f a76c e5bd c4c0 21bf
000001c0: 44de 253e 1c7f e23e 81cc 68bf aeec c6be
000001d0: f153 cc3e ae57 54bf 8edc 02bf 4930 a13e
000001e0: 1ad9 28bf 8a82 f63d ee67 ad3e a512 593e
000001f0: 418f 533f 0e34 8abe 82ae ef3e 3137 c3bc
00000200: 8cc8 74be ce14 fbbe 1108 443e a953 8d3e
00000210: f5e3 3e3f 4243 023f 1b48 a73e 9556 963b
00000220: 4ae1 45bf 2d8a 5cbe 9af0 823f 711a 8ebf
00000230: 9127 d7bf f5f1 463f 32b6 c53d 579f 393e
00000240: 59a0 853d f5ac 993f e70b acbf 6515 8bbe
00000250: 65f3 13be 482e d43d a775 683f 4f16 3abf
00000260: 841e 0f3f fcc1 98be e2e2 b3be bf62 acbf
00000270: 1145 0fbe 3612 0b3e 44b8 293f 42b1 77bf
00000280: 147a e3bd 5ee3 82be 13e9 6cbf db47 40be
00000290: 30ab 173f 9de9 5abd d014 c83e fe97 003f
000002a0: 14df 19bf 80e7 ac3e 5cc1 4ebf 586a 1d3d
000002b0: 1137 e0be 762d 18bf 660a fcbb 5aec ac3c
000002c0: 4c26 273c 1cbb 9f3e 1282 343e 8349 8d3f
000002d0: e6c1 e93e d163 343d d9ac 773c 8697 fa3e
000002e0: b294 45be 0c66 153f b7fc 483c 028d 12bf
000002f0: 631a 93be 9519 5f3f ac26 c5bf 5012 323f
00000300: 4cca 62bd 9b6f f03d df8f 883d ea58 ccbe
00000310: a221 cf3f a22b 18be c3a1 96bd c898 80be
00000320: d334 063f 5c7e 9f3f ef81 ffbd e436 afbe
00000330: a6bc 003f 30d3 0140 5e9b b83e 88b4 d9be
00000340: e088 933f 1044 77bf ced5 3b3f 7363 8ebf
00000350: 9dfb d6bd e7a1 663d e114 b73d 6440 0fbf
00000360: fa52 7ebf 688f 1b3e 5ade 1e3f 4b98 693e
00000370: 1dae 88bd ae99 a83e 7e64 863e 8481 42bf
00000380: 628a 13be 6be6 c63f 7887 2a3e 9c48 093c
00000390: 0783 ee3e ecde bb3e 0ad0 7dbf 08c7 9cbf
000003a0: 5c54 16bf 678b d8bf 1b29 44bf 24f4 8e3e
000003b0: 7dee b63e d5fb 123f 3402 0f3e 2e04 8cbf
000003c0: 1f28 d7bd c7ed 9a3c b883 42bf 9065 60bf
000003d0: 9d4b 5c3f 211b 4ebf 4a3e 3bbf a1d4 923f
000003e0: 4a68 54bf 9756 ac3e 36b2 5ebd aaf7 1d3f
000003f0: 07c9 473f 8426 d83e f77a 95bd e23f 233f
0.046518624 -0.2574704 -0.33315495 0.64691615 0.48409042 -0.21662337 0.17056666 0.5303253
-0.5028666 -0.4180276 1.438171 -0.24778828 -0.31189764 0.08825063 0.6308456 0.7058781
-0.23993239 1.3799309 -1.2768189 -0.4001943 0.6492686 1.2474443 1.5981935 0.26868418
0.96670306 0.19077764 -0.6174325 -0.5264111 0.8027321 -0.03760763 0.44893283 0.4174541
-0.020345343 -0.25309 0.025876468 0.05162945 1.1932912 -0.32644048 0.97353464 0.12619787
1.085878 0.19967166 -0.5977232 0.07704169 -0.3135924 -0.28880423 -0.2898781 -0.077777155
-0.053515904 -0.036747433 0.4327514 0.38375372 0.9146946 0.7124445 -0.90659887 0.5142687
-0.55278295 1.355153 -0.57805 0.26458424 -0.83383894 0.36150828 -0.8028886 0.91005695
-0.20978528 0.66982937 0.15635666 -0.4694514 1.4782608 -0.5630862 0.9370856 0.0944415
-0.47424623 -0.032369908 0.60696805 0.15457094 0.34322643 0.80142754 0.32372388 0.5568919
0.3120142 -0.8096973 1.1309242 -0.18442398 0.2339172 -0.50470674 0.30193463 -0.34570438
-0.61742383 0.08358016 1.0849969 0.2879915 -0.78714854 0.9079694 -0.061534237 0.05787126
-1.5371999 1.2952942 -0.1393366 0.0041097975 0.5501936 -0.095513605 -0.22210826 -0.66073763
-0.5487695 -1.1475192 0.42701948 0.20468971 0.6828297 0.89984703 -0.112023644 -0.6318476
0.16198069 0.44237602 -0.9093705 -0.38852447 0.39907792 -0.8294629 -0.5111779 0.3148215
-0.6595627 0.12036617 0.33868355 0.21198519 0.82640463 -0.2699284 0.46812826 -0.023830028
-0.23904628 -0.4903931 0.19143702 0.2760289 0.74566585 0.5088388 0.326722 0.004587958
-0.7729689 -0.21537085 1.0229676 -1.1101819 -1.680895 0.7771295 0.096538916 0.1812719
0.065247245 1.2005907 -1.3441132 -0.2716476 -0.14448316 0.1036039 0.90804523 -0.7269029
0.5590594 -0.29835498 -0.35134035 -1.3467635 -0.1399119 0.13581166 0.6629679 -0.9675485
-0.11107269 -0.25564092 -0.92543143 -0.1877741 0.59245586 -0.053445447 0.3907838 0.5023192
-0.60106015 0.3377037 -0.80763793 0.038431495 -0.43792012 -0.5944437 -0.0076916693 0.021108795
0.010202002 0.3119744 0.17627743 1.1038059 0.45655745 0.044040505 0.015116894 0.48943728
-0.19295004 0.58358836 0.012267283 -0.5724641 -0.2873107 0.8714841 -1.5402427 0.6955919
-0.055368707 0.11740037 0.06668066 -0.39911586 1.6182139 -0.14860395 -0.07355072 -0.25116563
0.52424353 1.2460437 -0.12475955 -0.34221566 0.50287855 2.0285149 0.36056036 -0.42520547
1.1526146 -0.9658823 0.73373115 -1.11241 -0.1049721 0.056306746 0.08939529 -0.5595763
-0.9934536 0.15191424 0.6205803 0.22812001 -0.066738345 0.32929748 0.26248544 -0.75978875
-0.14408258 1.5539068 0.1665324 0.008379128 0.4658434 0.36693513 -0.9914557 -1.224824
-0.5872247 -1.6917542 -0.7662522 0.2792064 0.35728827 0.57415515 0.13965684 -1.0938776
-0.10505699 0.01891221 -0.75982237 -0.8765497 0.86052877 -0.80510145 -0.7314192 1.1471139
-0.8297163 0.33659813 -0.054369174 0.6170603 0.7804112 0.42216885 -0.07298844 0.6376935

model/dense/BiasAdd/ReadVariableOp f4 [32]
00000000: 627a 093e fb02 62bd 44d9 3f3d 07b5 51be
00000010: 241a aa3d fc30 4f3e bc0f 3cbd 9c08 cabd
00000020: 988c e0bd 6764 23be 80e0 d8bd c55e 67bd
00000030: 12c2 5dbe 0f96 513e 283c 7e3d d35d 603e
00000040: 386e 953a 3a69 e13e f94b ad3b 3e51 d03d
00000050: 4f3b eebe a02e 1b3e eac4 bfbb fc04 a3bc
00000060: d810 6cbe a79e b33d 0062 e73c 7a1f a5bd
00000070: 9b95 52be a259 5f3e 2843 aebe 174f 5d3c
0.13425592 -0.055178624 0.04683806 -0.20479213 0.08305767 0.2023353 -0.045913443 -0.09864923
-0.10964316 -0.15956269 -0.10589695 -0.056486864 -0.21656063 0.20467399 0.06206909 0.21910791
0.0011400646 0.44025594 0.0052885977 0.10171746 -0.46529624 0.15154505 -0.0058523314 -0.019899838
-0.230533 0.08770495 0.028244972 -0.08062644 -0.20564882 0.21811536 -0.3403561 0.013507626

model/dense/MatMul f4 [32, 64]
00000000: 3ac5 513f bc4f d53d 5e3c fbbe f0cd 1f3f
00000010: a179 75bf 8c33 41be 68e2 92bf cdcf 85bf
00000020: 9bff 973e 7885 883e 4fd7 82be f897 afbe
00000030: bc50 f03e 3387 98bc 38dd bbbf 7f8a febe
00000040: 4119 82bf 69d4 043e f593 81bf ad4e e33e
00000050: 0465 023e 3bb9 9c3c 2a66 d1bf 2d39 583f
00000060: 85df 72bf 55e7 a4bb 9480 b1bd c16b 9ebe
00000070: d36a f7bc 197c 693e 1943 a3bf 9b1a fabe
00000080: a641 1e3e 3045 053f 1ecd c0be 17ca fbbf
00000090: a8b5 1e3f c047 dabd 1513 a23d 4abd 7bbf
000000a0: 2b13 d5bf c730 a7bf 20bb ff3e 9aaa c6be
000000b0: 278c d73e f8e8 61bf 4829 e53b 7d2a 163f
000000c0: 0408 bd3e 77b1 acbf 208f d2be 20ce 7c3e
000000d0: 2126 3b3e c66b 10bd 0c92 e83e 2fe3 90bf
000000e0: 4953 4f3d 7090 b6bd 9944 493e cd0b eebf
000000f0: 3983 64bf f107 023f 4733 413f d056 c33e
00000100: 88bc 33bf 31dd 173e 2bae 593d 836a 6ebf
00000110: 4133 033f e31f 94be 552d 02c0 6087 79bf
00000120: acb7 f93c 1f4d af3d 23c3 8f3d 34c5 c1be
00000130: b85f 3dbe 75fd 17bf 9b81 dd3e a614 343d
00000140: 221c 8e3e 80c0 3fbf 2f22 493e 192f c33d
00000150: aad6 d73e d7f4 cbbf fcef b7bf 42a1 d2bf
00000160: 156c 3d3d 56bd 4dbf d623 f03e 0434 b7be
00000170: 4344 80bd 8ea7 8c3d 6382 b83d 7113 08be
00000180: 29e6 183e 672b dc3d af26 523e 04e0 4dbe
00000190: 65ce d8bf b7e8 45bd 41ca 81bd c5c3 fd3d
000001a0: fa18 c3bf 35e3 a9bf 4821 80be 2f70 bcbe
000001b0: 4209 adbf 0d19 093f 6f13 a13e 86ee 13bf
000001c0: 562e b73d 1029 203f 5fda c03d 8b38 0f3f
000001d0: a3ff 653e a569 51be c7b5 02bf a159 f83d
000001e0: edf8 cb3e 6e09 a3bd e48c 39be 4285 cb3e
000001f0: 401c 1cbd e7b2 a6be e259 813d d8ee ecbe
00000200: 0def 413d d662 333e a815 2c3f e3af 9a3e
00000210: 94e8 a6bd b280 bebd 7361 a3bf d5bd 07be
00000220: d96d 37be b010 3c3f a182 113f 7eb0 c2be
00000230: e030 4bbf b37c 5a3e 94d8 8dbf 053a 97bf
00000240: abf0 263f 5e5c 76bf 713f 293e beef 613e
00000250: fb71 d23e c0eb aebf 70c0 c7bf 67ae 17bc
00000260: 1ef2 5ebf 02b4 6ebe 36fe d03e 17a5 35bf
00000270: 9055 c73e 4c95 49bf 3698 b1bf 2f00 403f
00000280: 4f76 15bf 89b7 dc3e 37f1 cbbe 2c88 a9bf
00000290: f8e2 da3d 7a70 11be eab8 233e 429d 993e
000002a0: 939a 02bf 50f2 78bf 7b68 103f 3d0a 06bd
000002b0: a41d 0d3f 8272 a4be 9579 3a3f a782 783d
000002c0: fa45 583e 542a 053f 3bee 01bf c1d4 c63e
000002d0: 95ff 8fbf 9104 093f 77d3 8f3e d1da 6ebf
000002e0: 23b6 03bf bd73 0d3f 0809 3ebf 4520 c5be
000002f0: 2a5d 0ec0 8328 75be fdd1 d03e 8e66 24bf
00000300: 2e4e a3bf 6a29 06be 8f06 63bc 0164 72bd
00000310: d154 8d3e 3eb5 eb3e 093e 3dbc fb4c 4d3e
00000320: 8510 00bf 1d63 c6bd 670a 113c d81e 8a3e
00000330: 2e41 b5be c6aa 4cbe 8534 0bbf cba9 c33e
00000340: 2974 3a3e 859e c8bf 924d 52be 3fd6 dabd
00000350: 2c78 db3e 98af 57bf 1d8b a4bd 2426 88be
00000360: 749d b2bc 3f24 9bbd 94e6 453e 2be5 44be
00000370: a199 03bf 9136 ad3e 7c31 b5bd b2c8 b43e
00000380: d7e4 bebe 25e6 02bc 97d4 ea3e b3c3 afbf
00000390: ad94 19be 26b3 98bd 1b4d 6dbe 9d7d b6be
000003a0: da6f 0cbf 558a 4d3e cffc 8a3e c3a0 21bf
000003b0: 72ca 22be 8edd 963d 76cc b33e 08cc e93e
000003c0: 37e7 a63d 7999 2e3e b718 d6be 6fd4 d7bc
000003d0: 1e62 b63c f768 be3e e83f 41bd b5d8 70be
000003e0: bdea e6bd 4056 3a3e e949 033e ca6e c6bd
000003f0: 444c 853b f0fc 8cbf a042 523d 4650 783e
0.8194157 0.10415599 -0.49069494 0.6242361 -0.95888716 -0.1886732 -1.1475344 -1.0454041
0.296872 0.2666433 -0.25554892 -0.3429563 0.46936595 -0.018619156 -1.4676886 -0.4971504
-1.0163957 0.12971653 -1.0123278 0.44395962 0.12733847 0.019131294 -1.6359303 0.84462243
-0.94872314 -0.0050324597 -0.086671025 -0.30941585 -0.030202305 0.22801246 -1.2754852 -0.48848423
0.1545473 0.52058697 -0.37656492 -1.9671048 0.61995935 -0.106582165 0.07913796 -0.9833571
-1.6646475 -1.3061761 0.49947453 -0.38802034 0.42099115 -0.8824611 0.0069934465 0.5865858
0.36920178 -1.3491658 -0.4112482 0.24688005 0.18276264 -0.03525903 0.45423925 -1.1319331
0.050616536 -0.08914268 0.19655074 -1.8597351 -0.8926273 0.5079337 0.7546887 0.3815217
-0.7020955 0.14830472 0.053144615 -0.93131274 0.5125008 -0.28930578 -2.0340168 -0.9747219
0.03048309 0.085596316 0.07019641 -0.37845767 -0.18493545 -0.5937112 0.43262944 0.043965004
0.2775584 -0.74903107 0.19641946 0.095304675 0.42155963 -1.5934094 -1.4370112 -1.6455462
0.046245653 -0.8036703 0.4690234 -0.35781872 -0.0626302 0.06867896 0.09009244 -0.13288666
0.14931549 0.10750466 0.20522569 -0.20104986 -1.6937987 -0.048317637 -0.06337405 0.12390856
-1.5241997 -1.3272463 -0.25025392 -0.3680434 -1.351845 0.5355385 0.3146014 -0.5778583
0.08944385 0.62562656 0.09416651 0.5594565 0.22460799 -0.20450456 -0.5105862 0.1212647
0.39838353 -0.07960783 -0.18120152 0.39750105 -0.03811288 -0.32558367 0.06315972 -0.46275973
0.047347117 0.17518172 0.67220545 0.30212316 -0.081498295 -0.093018904 -1.2764114 -0.13256009
-0.17912997 0.73462963 0.5683995 -0.38025278 -0.7937145 0.21336631 -1.1081719 -1.1814581
0.6521098 -0.9623469 0.16528107 0.2206411 0.41102585 -1.3665695 -1.5605602 -0.009257889
-0.8708819 -0.23310855 0.40818948 -0.7095503 0.38932467 -0.78743434 -1.3874576 0.7500028
-0.5838365 0.43108776 -0.3983247 -1.3244681 0.10687822 -0.14203063 0.15988508 0.3000279
-0.5101711 -0.9724474 0.56409425 -0.032724608 0.55123353 -0.32118613 0.7284177 0.060671475
0.21120444 0.5201771 -0.50754136 0.38834193 -1.1249872 0.5352259 0.28091022 -0.9330264
-0.51449794 0.5525473 -0.7423253 -0.38501182 -2.2244363 -0.23941235 0.40785208 -0.64218986
-1.2758234 -0.13101736 -0.013856544 -0.059177402 0.27603772 0.46036714 -0.011550435 0.20048897
-0.50025207 -0.09686873 0.008852578 0.26976657 -0.3540129 -0.1998702 -0.54377013 0.3821548
0.18208374 -1.5673376 -0.20537403 -0.106853954 0.4286512 -0.8425231 -0.08034346 -0.265916
-0.021803595 -0.07575273 0.1932624 -0.19228046 -0.51406294 0.33830693 -0.08847329 0.35309368
-0.37283966 -0.007989441 0.45865318 -1.3731598 -0.14998122 -0.07456045 -0.23173945 -0.3564271
-0.5485817 0.200723 0.27146003 -0.6313593 -0.1589754 0.07366477 0.3511693 0.45663476
0.081495695 0.17050733 -0.4181573 -0.026346413 0.022263583 0.37189457 -0.047180086 -0.23520167
-0.112752415 0.18196964 0.12821163 -0.096891 0.0040679295 -1.101469 0.05133307 0.24249372
